app/voice_models/jarvis.onnx (onnx, 206810 bytes, 9 tensors)

layer1.weight f4 [32, 1536]
000000 69 86 73 3c 37 42 64 ba 1d 77 a3 3c 99 76 86 bc
       0.014863589 -0.00087073765 0.019954259 -0.016413974
000010 01 72 5a bc 4f de 37 3c 50 74 13 bc cd 7d 64 3c
       -0.013332845 0.011222436 -0.008999899 0.013946009
000020 0d 85 44 3c 74 64 45 3c e6 61 8b 3c 95 51 1c 3b
       0.011994612 0.012047876 0.017014455 0.0023852338
000030 a0 f1 3a bb 27 2e b6 bc 78 24 cb 3c e4 82 34 bc
       -0.0028525367 -0.022238804 0.024797663 -0.011017535
000040 99 6f b8 3c 14 22 d1 bc a4 90 0d bd 98 d2 cb 3c
       0.022514151 -0.025528945 -0.03456177 0.024880692
000050 e1 a9 20 3d 05 07 b2 bc 20 c2 0d bc bf f1 ab 3c
       0.03922451 -0.021731863 -0.00865224 0.020989297
000060 6e b7 26 bc 01 f6 c4 bc 20 60 e3 bc d4 72 5b 3c
       -0.010175569 -0.024043085 -0.027755797 0.013394076
000070 77 ef 84 3c dc 43 70 bc a5 6e 4d bc 8a 6c d0 3b
       0.016227467 -0.014664616 -0.012538587 0.006360595
000080 85 c5 94 3c 74 22 22 bc bc 24 48 bb b5 fe f3 bb
       0.01816059 -0.00989591 -0.0030539474 -0.007446135
000090 91 f0 90 3c 01 2a 2a 3c c8 a8 dc 3a b2 7e 5c bc
       0.017692836 0.010385991 0.0016834969 -0.013457941
0000a0 0e 08 c8 bc 99 3d 01 bd 11 76 d9 3c 10 ac 61 3c
       -0.024417903 -0.031552885 0.026545556 0.013773933
0000b0 2f 4d 84 bc c2 a1 88 bc f8 a6 8e bc fe 1c 21 bd
       -0.016150085 -0.016678695 -0.017413601 -0.03933429
0000c0 e8 30 7f bc 27 69 55 bc 7a d9 d2 bc 76 c4 d1 bb
       -0.015575625 -0.013025559 -0.025738467 -0.006401594
0000d0 bd 0b 7d bb d7 68 d7 bc 34 6d 82 bb 04 3c 34 bc
       -0.0038611733 -0.026295109 -0.003980303 -0.011000637
0000e0 26 e7 42 bc 3a 84 c7 3c d0 92 eb 3b 01 0d 4a 3c
       -0.01189593 0.024355043 0.0071891323 0.012332202
0000f0 ff 73 8d 3c 4d d0 64 3a 80 e9 8a 3c 5b b9 13 bd
       0.017267225 0.0008728549 0.016957045 -0.03606544
000100 79 5d df 3c e0 2b b5 bc dc 9e af bc e2 2f 0b 3c
       0.02726625 -0.022115648 -0.021438055 0.008495303
000110 59 4b 0f 3c e4 b7 6b 3c 12 27 1c bb 3b 03 5d bc
       0.008745992 0.014387105 -0.0023826999 -0.01348954
000120 aa 59 11 bd b3 d6 40 3b 3b cd 65 3c 1d 7b 46 bd
       -0.0354859 0.0029424846 0.014025982 -0.048457254
000130 6c 3c da bb 39 77 a4 3b 0e 14 c5 ba e6 a6 c6 bc
       -0.006660035 0.0050190953 -0.0015035884 -0.024249505
000140 37 03 96 bc f2 ac b2 3c 85 f1 63 3c cd ba b5 bc
       -0.01831208 0.021810982 0.013912563 -0.0221838
000150 89 33 b7 3b 0a 04 db 3c e8 e5 3c 3b 16 6b d3 3b
       0.0055908603 0.026735324 0.0028823558 0.0064519746
000160 c3 22 2e bc 61 f7 4b 3c de 43 e8 3c 30 ca 56 bc
       -0.010628405 0.012449116 0.028352674 -0.013109729
000170 c9 05 4d 3c e6 1b 13 3c 4d 31 fe bc 81 63 26 bc
       0.012513586 0.0089788195 -0.031029368 -0.0101555595
000180 b2 3c f7 bb 12 dc 90 bc 8a 82 ff bb 26 e9 cb 3c
       -0.0075450772 -0.017683063 -0.007797544 0.024891447
000190 07 2b 26 3c 40 83 9f ba 7b 5d 46 3c cc ba a6 3b
       0.010142094 -0.0012169853 0.012107248 0.005088186
0001a0 e1 60 f5 3c bd 68 0c 3c df ae 75 3c 86 68 d4 3c
       0.029953422 0.008569893 0.014995306 0.025928747
0001b0 d0 38 e0 3b 6a 33 16 bb b5 14 1c bb d8 52 c6 3c
       0.00684271 -0.0022918829 -0.0023816053 0.024209425
0001c0 a2 80 27 3b 54 01 69 bb 80 ff 9d 3c f5 90 d9 3a
       0.002555885 -0.003555377 0.019286871 0.0016598987
0001d0 a5 35 b9 bb d4 16 05 3c 6f ef 86 bc 79 ae ac 3c
       -0.005652147 0.008123118 -0.016471593 0.021079289
0001e0 be 0b 2d bc 6c 93 0f 3c e4 52 95 bb c7 45 03 3d
       -0.010561882 0.008763175 -0.0045570005 0.032048967
0001f0 a5 68 14 bc 15 b1 4b 3b 27 40 a1 bb 76 44 1a 3c
       -0.009058152 0.003108089 -0.0049209776 0.009415736
000200 93 1f 59 3c b2 27 08 3d b3 ef 63 bc 85 f3 33 bc
       0.013252157 0.03324098 -0.013912129 -0.010983353
000210 49 27 49 3c eb f5 18 3c 15 30 e5 bc f9 33 d9 bb
       0.012277433 0.009335975 -0.027977029 -0.00662851
000220 b2 c2 a1 bb 98 c4 d2 bb 59 63 85 bc fc 04 0a 3b
       -0.0049365396 -0.006432127 -0.016282724 0.00210601
000230 f3 68 85 bc 24 15 b3 bb e9 b6 28 bb eb 41 d7 bb
       -0.016285395 -0.0054651666 -0.0025743789 -0.0065691373
000240 29 8f 03 3b a9 e7 43 bc 07 1b 03 bc cb d4 96 bc
       0.0020074344 -0.011957088 -0.008002049 -0.018412014
000250 b8 c1 eb bb c2 05 d4 bc ae a5 51 3c ca 2d f6 b9
       -0.007194724 -0.025881652 0.012795849 -0.00046954892
000260 6d 25 90 3c 62 9f 4d ba c0 1b 70 3b 59 d1 61 3a
       0.017595971 -0.0007843879 0.0036637634 0.0008614264
000270 31 af 8e bc 5c 7f 01 bb 6f b4 9f 3a 7e 3c 99 3c
       -0.017417522 -0.001975975 0.0012184511 0.018705603
000280 91 c9 e5 ba a8 e5 b4 bb 72 17 df bc c6 96 3f 3c
       -0.0017531385 -0.005520541 -0.02723286 0.011693662
000290 c4 28 93 bc 10 18 a5 bc 80 f6 46 3c 6c 5c a7 bc
       -0.017963775 -0.020153075 0.012143731 -0.020429812
0002a0 6f a5 6a bc 56 4e ce bb 49 1b f2 b9 6d 4c 2a bd
       -0.014321669 -0.0062959595 -0.00046178166 -0.04157679
0002b0 a8 38 9e 3c 85 70 76 bb 91 cd 59 3c a5 ce 20 bb
       0.019314125 -0.0037603688 0.01329364 -0.0024537232
0002c0 b2 b9 e6 3b 2b 03 10 3b c7 38 21 3c 7b eb fa b9
       0.0070411796 0.0021974545 0.009840197 -0.00047859162
0002d0 83 df 16 bc 49 cd c1 3c 97 cd 5b 3c d4 17 70 3b
       -0.009208563 0.023657458 0.013415716 0.0036635296
0002e0 b4 0a db 3c fe 39 93 3c 62 49 a4 bc c3 2d ee 3b
       0.026738502 0.017971989 -0.020054523 0.007268639
0002f0 18 68 7e bc 50 67 a2 3c 22 1c 2d bc dc 87 c2 3c
       -0.015527748 0.019824654 -0.010565789 0.023746423
000300 81 d8 8e 3b 7e c6 04 3c 97 52 2b bc e1 6c 89 ba
       0.0043593054 0.008103965 -0.010456703 -0.0010484719
000310 ef ab bd bc 14 33 b6 bb e3 f6 c8 bb a3 b2 f5 bc
       -0.023153273 -0.005560288 -0.006132947 -0.029992407
000320 17 70 d4 3c b8 8f 2c bb 12 ed 8e bc 3b f8 78 bc
       0.025932355 -0.002633078 -0.017447028 -0.0151959015
000330 a0 1c 8f 3b 73 d9 71 bc af 90 05 bd 80 5a c4 3b
       0.004367426 -0.014761317 -0.032608684 0.0059922338
000340 75 fd 69 3c 9a 05 0d bc 53 c2 50 3c 93 19 ca 3c
       0.01428162 -0.008607293 0.012741643 0.024670398
000350 2d 7e c2 bb 14 42 23 3c 59 a0 b9 bc 6a c5 1e 3b
       -0.0059354515 0.009964485 -0.022659468 0.0024226555
000360 45 c2 52 bb 21 a1 b6 bc 6f ac 1e 3c 7a 39 dc bb
       -0.003215925 -0.02229363 0.009684666 -0.006720719
000370 26 99 b5 bc 97 15 03 3d 87 3e d4 3b 1d 4c ad 3b
       -0.022167753 0.03200301 0.0064771804 0.0052886144
000380 6f 3e d0 bc 72 f0 33 3c d5 3d 66 3c 42 72 25 bc
       -0.025420396 0.01098262 0.014052828 -0.010098042
000390 d5 a2 74 bb e3 b9 82 3c 73 be 10 3d c7 43 e1 3b
       -0.00373285 0.015957778 0.035337877 0.0068745348
0003a0 bd 46 2f 3b 5a 37 1a 3c a2 50 a5 bc 19 eb a3 3b
       0.0026745044 0.009412611 -0.02018005 0.005002391
0003b0 a9 57 fd b8 aa a3 3d 3c aa c5 88 3c 4c c3 4c 3c
       -0.00012080308 0.011574665 0.016695816 0.012497734
0003c0 97 7c 4e bc 0d a8 e1 bc ce c9 8e b8 39 4c 0f bb
       -0.012602947 -0.027545953 -6.808677e-05 -0.00218655
0003d0 d3 07 dd ba 90 a0 b9 bc a3 15 d5 39 cd be 8a 3b
       -0.0016863294 -0.02265957 0.00040642646 0.004234171
0003e0 fc a7 98 bc 42 63 a0 bc 7a 1c 9b bb 62 9b db bc
       -0.018634789 -0.01957858 -0.0047336193 -0.02680749
0003f0 48 44 23 bb 2e 5e 6e bc 5f 1b 44 3c 54 b7 60 3c
       -0.0024912525 -0.014548821 0.011969416 0.013715584

layer1.bias f4 [32]
000000 30 25 84 3c 7a 21 a9 bc f4 73 a4 bc cb 53 1e 3c
       0.016131014 -0.020645846 -0.020074822 0.0096635325
000010 69 48 51 bc 4f 13 a3 3c 2e 02 a8 3c c9 0c 8d bc
       -0.012773612 0.019906668 0.020508852 -0.01721801
000020 42 aa bf 3c e4 bb 52 3b 34 15 8b bc d6 97 0b bc
       0.023396615 0.0032155449 -0.016977884 -0.008520087
000030 b3 b4 e7 bb c3 10 82 bb 64 c2 91 3c 97 d6 9c bb
       -0.0070711016 -0.0039692833 0.017792888 -0.0047863233
000040 98 29 7c 3c 00 98 a4 bb 4f c7 72 ba d4 4b 71 bb
       0.015390776 -0.0050230026 -0.00092612667 -0.0036818879
000050 bb a0 a0 bc 02 3a ca bc d3 56 92 bc 3d 61 9c bc
       -0.019607892 -0.024685863 -0.017863667 -0.019089336
000060 de 3e d2 3c 53 8a d9 bc 10 d3 87 bb 1b f1 c2 3c
       0.025664743 -0.026555216 -0.0041450337 0.023796609
000070 cb 9c ca bc e1 1a cd 3b 41 28 b4 bc 33 fa 64 bc
       -0.024732968 0.0062593077 -0.02199185 -0.013975668

layernorm1.weight f4 [32]
000000 46 ee 76 3f 40 79 74 3f 44 9e 7e 3f 6d 25 7f 3f
       0.96457326 0.9549751 0.99460244 0.9966648
000010 af 1f 7e 3f 21 af 7c 3f f0 1e 7f 3f a8 fd 7e 3f
       0.99267095 0.98704726 0.9965658 0.996058
000020 7d 4e 84 3f bd e7 7e 3f 01 1e 7f 3f bc 7c 7d 3f
       1.0336453 0.99572355 0.9965516 0.99018455
000030 85 bf 7d 3f 28 c6 81 3f 65 be 71 3f 38 8d 7f 3f
       0.9912036 1.0138597 0.94431144 0.9982486
000040 ec a7 78 3f c9 ff 7e 3f 05 f6 79 3f 1a a8 7f 3f
       0.9713123 0.9960905 0.9764102 0.9986588
000050 a7 eb 7e 3f ac f7 7d 3f ba ff 82 3f 28 ba 7e 3f
       0.99578327 0.9920604 1.0234292 0.995028
000060 19 ed 84 3f 90 a2 83 3f 50 10 7f 3f 14 6c 7e 3f
       1.0384856 1.0283985 0.99634266 0.99383664
000070 61 1c 7f 3f 3f 88 7c 3f fc 09 7d 3f aa 0c 7f 3f
       0.9965268 0.98645395 0.9884336 0.996287

layernorm1.bias f4 [32]
000000 cf 6b b0 3b 6f b4 92 3b 95 50 b6 bb 03 c0 4b bb
       0.0053839455 0.0044770758 -0.0055638053 -0.003108979
000010 fa f3 ae 3c 21 80 d4 3c a7 e4 01 bc 90 d1 14 bc
       0.021356571 0.025940003 -0.00792805 -0.009083167
000020 88 a5 1a 3c e6 69 71 3c c5 b9 20 bc 60 07 dc bb
       0.00943888 0.014734721 -0.009809916 -0.0067147464
000030 f9 06 33 3b 9b 08 54 ba f5 76 9c 3b b4 8c fe bb
       0.0027317388 -0.00080884405 0.004774923 -0.007768238
000040 d2 d4 c1 b8 04 87 92 bb 4b 12 3e 3c 8d 0e 61 bc
       -9.242598e-05 -0.0044716615 0.011601041 -0.013736379
000050 24 21 f1 bb 81 01 33 bc 5a 14 bb bb 97 0d af bb
       -0.007358687 -0.0109256515 -0.005709213 -0.005342196
000060 d7 9c e7 3b 75 83 a0 3b c4 13 81 bb 32 46 b7 3c
       0.0070682573 0.0048984834 -0.003939124 0.022372339
000070 32 bd 5a bc 19 47 cd bb 5f 39 18 bc a3 3d 93 3b
       -0.013350772 -0.006264579 -0.009291022 0.0044934317

blocks.0.fcn_layer.weight f4 [32, 32]
000000 32 90 15 3c 2e d9 59 bc 3b 7a c3 bd 76 89 a4 bd
       0.009128617 -0.013296409 -0.09544798 -0.08034031
000010 10 ed d8 bd 9d 14 9b bd dc 37 ea bc 80 72 1c 3d
       -0.10592091 -0.07572291 -0.028591089 0.038195133
000020 b0 dc c1 3d f2 e5 bc bd 6c 69 70 3d fc 5c 62 3d
       0.09465921 -0.09223546 0.058694288 0.055264458
000030 6c 50 aa 3d d3 03 8d 3d 91 62 21 3e a2 9d 09 3e
       0.083161205 0.06885495 0.15760256 0.13439038
000040 26 bc 3e 3d 15 95 b7 3d bb 1b e8 3d 69 d1 7e bb
       0.04656615 0.08963982 0.11333414 -0.0038882142
000050 f2 03 e4 bd 69 37 17 3d 95 63 05 be d9 03 f3 bd
       -0.11133565 0.036918078 -0.13026269 -0.11865968
000060 91 7a 2b 3d 4c 7f ad bd ef 7d ac bd 42 a1 8f 3d
       0.041864935 -0.084715456 -0.084224574 0.07013179
000070 69 ef 80 bd 6b 39 ed 3c 12 df fb bd 71 a6 1a 3e
       -0.06295664 0.028958043 -0.12298407 0.15102555
000080 1e 03 61 bd b4 2f 99 bc 4b 9e 50 bd 6f f8 ad 3d
       -0.054934613 -0.018699504 -0.05093221 0.084946506
000090 83 b9 ac 3d f2 12 01 bd c4 7f d1 3d ab 4f 1a be
       0.08433821 -0.03151221 0.102294475 -0.15069453
0000a0 7a 04 74 3d 69 e8 43 bc 30 e5 73 3d fc 75 9f 3d
       0.05957458 -0.011957266 0.059544742 0.077861756
0000b0 0a a3 fd 3d 1e 7e 36 bd 9b 14 04 3e aa a9 19 be
       0.12384613 -0.04455387 0.12898485 -0.15006128
0000c0 38 68 25 bd 90 e3 08 be 78 b7 06 be 74 48 10 3e
       -0.040382594 -0.13368058 -0.13155925 0.14090139
0000d0 7e 1a cc bb b8 0c 28 be e1 c1 ec 3d 5c e8 a9 bd
       -0.006228744 -0.16411102 0.11560417 -0.08296272
0000e0 68 81 ec 3c eb a2 49 bd 69 e6 b2 bd a1 e6 d0 3d
       0.0288703 -0.049227636 -0.087353535 0.10200239
0000f0 3e da 25 3e 6d 21 e1 3d 7e b0 01 3e 36 7c 2d bd
       0.16196534 0.109927036 0.12664983 -0.042354785
000100 6a 69 67 3d 8d 72 a7 3c a5 d3 08 be b5 3e 1d 3d
       0.056497015 0.020440364 -0.13361986 0.03838988
000110 43 ef 2f be e2 e2 c9 3d c2 a8 3f bd d7 e0 fd 3d
       -0.17181115 0.098577276 -0.0467918 0.123964004
000120 25 0b 26 3e ef b7 02 3d 31 b8 be 3d 7d 89 56 bd
       0.16215189 0.031913694 0.093124755 -0.052377213
000130 d1 84 22 bd 4e 75 0e be f9 dc 35 3d aa 2c 0a be
       -0.039677445 -0.13911936 0.04440019 -0.134936
000140 84 fa 34 3e 31 a4 05 be 0d 53 bf 3d a8 1b bf bd
       0.17673689 -0.13050915 0.093420126 -0.09331447
000150 29 05 0a bd cf e2 ba bc a6 2d 30 be 66 aa 5e bd
       -0.033696327 -0.022813229 -0.17204913 -0.054361723
000160 c3 69 d2 3c c6 b1 25 be 31 04 99 bd 2e e3 03 be
       0.025685197 -0.16181096 -0.074715026 -0.12879631
000170 2b 4c 7a 3b 32 f2 88 bd e3 df a8 bd 4b 31 f2 3d
       0.0038192372 -0.0668682 -0.08245828 0.11825808
000180 0b d3 60 bd b0 1f 17 be 58 ae 95 bd 10 4c 7d 3d
       -0.054888766 -0.14758182 -0.07308644 0.061840117
000190 ec 1b 1d 3e 6f de 20 be 4a 4e d4 3d ad 00 a5 bd
       0.15342683 -0.15709852 0.10366495 -0.080567695
0001a0 b0 ad 8d 3c a2 be 50 3d 75 d8 ec bc 3f 18 3c 3d
       0.017294735 0.05096305 -0.028911809 0.04592156
0001b0 30 5d 98 bd c8 af fe bc 0c 07 12 3e ae e9 23 be
       -0.07439649 -0.031089678 0.142605 -0.1600711
0001c0 f0 d9 c4 3d 83 a2 0f 3e 31 59 a5 3d 0c 51 b4 3d
       0.09611881 0.14026837 0.080736525 0.08804521
0001d0 d2 0c 1d be 8d 0a a9 3d 1d 15 2c be bb 58 58 3c
       -0.15336922 0.082539655 -0.16804929 0.013204749
0001e0 fd 51 6d 3e 1d 8f 40 bd 67 59 99 bc 08 8d 1a 3d
       0.23175807 -0.047011483 -0.018719388 0.037732154
0001f0 6d a9 0d bd 37 f4 1b 3e 59 7a 9e bd e7 76 a1 3d
       -0.034585405 0.1522988 -0.0773818 0.07884007
000200 3a d0 1c 3e 4e d2 dc 3d b9 e7 51 bb fb 3f 3f bd
       0.15313807 0.107823 -0.0032028987 -0.046691876
000210 60 e5 aa 3d b9 8b 2e be eb cc c3 3d de c9 f1 bd
       0.08344531 -0.17045487 0.095605694 -0.11806081
000220 97 b4 50 3e 41 0e 7e bc ee ba e2 3d a1 5c f6 3c
       0.2038139 -0.015506328 0.1107081 0.030073466
000230 19 f8 4d bd 50 8f 3f be 79 56 15 be 42 83 59 bd
       -0.050285432 -0.18707013 -0.14583768 -0.053103693
000240 72 01 c0 3c 73 e9 33 be d6 b7 16 be 3a 59 2b 3c
       0.02343819 -0.17569523 -0.14718565 0.010458285
000250 3b d5 03 bd 3d e1 17 bd 76 09 bb 3d 2d 9f f8 3c
       -0.032185774 -0.03708004 0.09132664 0.030349338
000260 07 e1 30 3e e2 b3 21 bd ef f8 89 bd 66 31 a5 3d
       0.17273341 -0.03947819 -0.067369334 0.08066063
000270 8f e4 c0 3d 03 50 99 bc 5b c3 10 bd a3 24 7f bc
       0.09418594 -0.01871491 -0.035342555 -0.0155727
000280 75 f2 3d be 1e 05 ad 3d b9 40 2f 3e c0 ba 17 3e
       -0.18549521 0.08448242 0.17114533 0.14817333
000290 b1 a4 16 3e f2 b9 b7 bd 84 4f 17 be db 94 81 3d
       0.14711262 -0.08971013 -0.14776427 0.0632722
0002a0 ee a7 f4 3d ce 69 a4 bd da 28 dd bd 28 4e d4 3d
       0.119460925 -0.08027993 -0.107988074 0.103664696
0002b0 68 7b 8e bd 5f db 85 bc 41 1d 1e 3d 13 fe 27 3e
       -0.069571316 -0.016339956 0.038602117 0.16405515
0002c0 5c 81 90 bd 2d 12 df bd 3f f7 a4 bd 9a c7 c3 3c
       -0.07055923 -0.10892139 -0.08054971 0.023898888
0002d0 86 1a 80 3d 17 bc a3 3d 32 d1 5c bd a0 32 d3 bd
       0.06255059 0.0799486 -0.05391044 -0.1031239
0002e0 f0 50 04 3e 5c f6 81 bd 86 87 b4 3a 2c 9f c5 bd
       0.129215 -0.063458174 0.0013773299 -0.096495
0002f0 76 03 97 bc 06 ad 3d 3e c3 89 52 3d 37 ed 2b 3c
       -0.018434267 0.18523034 0.05140091 0.010493568
000300 2c ed a9 bd 59 af cd bd 12 38 04 3e 40 c3 2d be
       -0.0829719 -0.100432105 0.12912014 -0.16969013
000310 31 87 ba 3d 06 ba b8 3d 7b 31 0e 3d 63 dc 17 be
       0.09107817 0.09019856 0.034715157 -0.14830165
000320 49 bf 5d 3b 65 26 c5 bc 7b 64 73 3d 2c 4a 4c bb
       0.0033835939 -0.02406616 0.059421998 -0.003117214
000330 24 22 a9 3c 6e d9 06 bd 20 c0 05 3e 9c 52 2a 3e
       0.020646162 -0.0329222 0.13061571 0.16633075
000340 8b 38 d0 3d 3f 5e ce 3d 13 60 f1 bd 07 23 04 bd
       0.10167035 0.1007657 -0.11785903 -0.032259967
000350 a5 7b 84 bd 6f f9 98 3c 78 23 d4 bd e5 dd ca bd
       -0.06468896 0.018673627 -0.103583276 -0.09905604
000360 88 74 83 3e 27 e1 fe bd 16 c4 fa 3d f3 53 91 bd
       0.25674844 -0.12445288 0.12244432 -0.0709609
000370 fc bb 45 3d 95 f6 b2 3d 3d b1 72 3d 5e 30 0b 3e
       0.04827498 0.08738438 0.05925106 0.1359267
000380 b7 88 e1 bd 01 06 b1 bc 87 bf f4 bd 18 bc 93 bd
       -0.110124044 -0.021609308 -0.119505934 -0.072136104
000390 45 10 02 be 0f af 9f 3d 02 72 6e bd 20 fd 6e bd
       -0.12701519 0.07797062 -0.058214195 -0.058346868
0003a0 fc de 81 bd 5c 13 00 3e 24 c0 c3 3d 92 78 64 3d
       -0.06341359 0.12507385 0.09558132 0.055779047
0003b0 df 3a 07 3c b6 5b 55 3b 66 4f 09 be 15 68 b1 bc
       0.008253782 0.0032555885 -0.13409194 -0.021656075
0003c0 56 0f bd bd 1d 0d 2a bd e2 05 a2 bd c0 5a 31 bd
       -0.09231441 -0.041516412 -0.07911278 -0.043299437
0003d0 30 14 1b bd 2b 6e 8c bd e7 8b 63 bd 60 45 a2 bd
       -0.03786105 -0.0685695 -0.055553343 -0.079233885
0003e0 15 31 37 3c 28 c8 d7 bc 82 51 a1 3d 2e ef cd 3d
       0.011181136 -0.02634056 0.078768745 0.100553855
0003f0 61 a2 bf bd 2d 94 32 3e 59 ac a7 3d 80 3f 3b 3e
       -0.09357143 0.17439337 0.081871696 0.18285942

blocks.0.fcn_layer.bias f4 [32]
000000 06 5f 53 3e 36 e1 14 bd 03 5f 06 3e 56 b1 28 3d
       0.20641717 -0.03634759 0.13122182 0.041184746
000010 a2 3e 32 3e c1 e5 a9 bd 57 4c 27 3e 72 ad b1 3d
       0.17406705 -0.08295775 0.16337715 0.0867566
000020 ad e8 1a be 61 ad f7 3d 1b 63 2a 3c 2e 46 b6 3d
       -0.15127821 0.12093616 0.010399605 0.089001045
000030 d3 f9 e8 bd 0a 00 ef 3d b9 13 13 3e b0 d3 24 be
       -0.11375775 0.11669929 0.14362992 -0.16096377
000040 de d8 c0 bd 77 ad 22 3e 75 7a 28 3e 01 12 25 3e
       -0.09416364 0.15886484 0.16452964 0.16120149
000050 e9 57 2b 3e e0 01 7e bd e1 8c d9 bd 30 10 07 be
       0.16732754 -0.062013507 -0.10622574 -0.13189769
000060 9f c2 6f bd 71 86 93 3d 2c 4e 0d 3e 71 a0 8c 3d
       -0.058535215 0.07203377 0.13799351 0.06866539
000070 66 b8 06 3e e8 78 ae 3b 24 44 9c bd 71 24 3c be
       0.1315628 0.0053244717 -0.07630184 -0.18373276

blocks.0.layer_norm.weight f4 [32]
000000 7e 06 b0 3f 91 2d 85 3f 98 94 a0 3f 93 16 9f 3f
       1.3751981 1.0404531 1.2545347 1.2428764
000010 bf 79 a7 3f 1e 2b 7f 3f 04 eb a4 3f c3 30 8b 3f
       1.3084029 0.99675167 1.2884221 1.0874256
000020 6f 3a 81 3f a7 2f 80 3f 2e 0e 87 3f 75 d9 9d 3f
       1.0095958 1.0014542 1.0551202 1.2331988
000030 0c 50 83 3f 21 6b 94 3f 26 08 9e 3f 32 35 8d 3f
       1.0258803 1.1595193 1.2346237 1.1031859
000040 9b f5 7a 3f aa 52 7f 3f ac 82 84 3f 9c eb 9d 3f
       0.98031014 0.9973551 1.0352378 1.2337527
000050 6b b2 7c 3f 68 9d 7d 3f 45 fa 8e 3f 53 24 75 3f
       0.98709744 0.9906831 1.1170126 0.9575855
000060 7b 3e 87 3f 25 08 9d 3f 70 ac 7e 3f 76 0a 98 3f
       1.0565943 1.226811 0.9948187 1.1878192
000070 79 e4 7c 3f 11 b0 83 3f 56 9c 7b 3f 60 27 80 3f
       0.9878612 1.0288106 0.98285425 1.0012016

blocks.0.layer_norm.bias f4 [32]
000000 17 7a 93 3e 28 07 8a 3d 38 60 7b 3e 21 9e 71 3e
       0.28804085 0.06739646 0.24548423 0.23595478
000010 ba c1 88 3e dc 4b 5b bc 76 ca 82 3e 41 d5 8b 3d
       0.26710302 -0.0133847855 0.2554509 0.06827784
000020 b9 b5 b2 3c 9d 42 25 3c d1 55 2e 3d e2 c2 71 3e
       0.021815168 0.010086683 0.04256231 0.23609498
000030 00 b7 c3 3d 0b 73 ef 3d 84 b9 6d 3e c1 ce cd 3d
       0.09556389 0.116918646 0.232153 0.10049201
000040 90 20 4e bc 83 b1 0f bb 80 36 08 3d da f8 6b 3e
       -0.012581006 -0.0021925874 0.0332551 0.23044148
000050 39 86 6a 39 5e 55 e3 bb 28 d2 76 3d 55 29 21 bd
       0.00022365981 -0.006937667 0.060259014 -0.039346058
000060 8a 04 a5 3c 2c 3a 72 3e 3a 3d f6 3b 72 ea 62 3e
       0.020143766 0.23655003 0.007514623 0.22159746
000070 4e b0 b8 bc 4f 7c a0 3c f4 33 a5 bb 18 97 26 bc
       -0.022545006 0.019590525 -0.0050415937 -0.0101678595

last_layer.weight f4 [1, 32]
000000 35 96 b7 be fe 02 f1 3d 03 af a5 be 81 02 b1 be
       -0.35856786 0.11768149 -0.32360086 -0.34572223
000010 ab 9c ae be 76 ab 09 3e 88 98 a9 be f5 eb ec 3d
       -0.34103903 0.13444313 -0.33124185 0.11568443
000020 d7 b8 18 3e 76 45 29 3d 34 fe 64 3e a3 28 a7 be
       0.14914261 0.04132601 0.22362596 -0.3264819
000030 00 40 5b bc 04 b9 29 3e 88 8d b9 be 43 1e bc 3d
       -0.013381958 0.16574484 -0.36240792 0.091854595
000040 1e 86 ed b8 ac c2 c7 bb 5c bd 49 3e ef 8c bc be
       -0.00011326022 -0.0060962047 0.19701141 -0.36826274
000050 a3 57 79 bb 17 68 a8 bc 7d 84 51 3e b6 cd d2 bd
       -0.003804662 -0.020557446 0.20460697 -0.102931425
000060 98 91 13 3e 52 15 a8 be f2 e6 81 bc 30 33 ad be
       0.14411008 -0.32828766 -0.015857194 -0.33828115
000070 9e 34 07 3e 42 bc e2 3c f8 e9 11 3c 33 42 0c 3e
       0.13203666 0.027677659 0.00890588 0.13697128
